data_test length : (985, 1612)
data_train length : (110, 1612)
y_data_test length : (985,)
y_data_train length : (110,)
_________________________________________________________________
Layer (type)                 Output Shape              Param #
=================================================================
dense_1 (Dense)              (None, 64)                103232
_________________________________________________________________
dense_2 (Dense)              (None, 128)               8320
_________________________________________________________________
activation_1 (Activation)    (None, 128)               0
_________________________________________________________________
dropout_1 (Dropout)          (None, 128)               0
_________________________________________________________________
dense_3 (Dense)              (None, 128)               16512
_________________________________________________________________
activation_2 (Activation)    (None, 128)               0
_________________________________________________________________
dropout_2 (Dropout)          (None, 128)               0
_________________________________________________________________
dense_4 (Dense)              (None, 128)               16512
_________________________________________________________________
activation_3 (Activation)    (None, 128)               0
_________________________________________________________________
dropout_3 (Dropout)          (None, 128)               0
_________________________________________________________________
dense_5 (Dense)              (None, 1)                 129
=================================================================
Total params: 144,705
Trainable params: 144,705
Non-trainable params: 0
_________________________________________________________________
Train on 985 samples, validate on 110 samples
Epoch 1/10
2019-03-17 17:56:26.734348: I tensorflow/core/platform/cpu_feature_guard.cc:141] Your CPU supports instructions that this TensorFlow binary was not compiled to use: AVX AVX2
…
